models/mycelium_controller/controller_model.pt (torch, 21239 bytes, 4 tensors)

fc1.weight f4 [64, 68]
00000000: d9f3 b9ba abd4 4cbd ca00 3d3d 6955 babd
00000010: feb4 57bc d2e6 80bd 30c9 413c 4006 f4bd
00000020: a837 34bc 17f4 b73d 8b44 ac3d 12d0 a13c
00000030: ca01 d23d 6a94 193d dc0f f2bd 939d a3bd
00000040: bc63 493d 1017 c6bd def4 c0bc 4b57 38bd
00000050: ae60 21bd 7c0b 4cbd 0f45 2b3d 47ba 783c
00000060: a7b7 aa3d f6b5 22bd 4ff8 bfbd 26fd 8fbd
00000070: 2847 ea3c e56c 7a3d b59a 94bd e71c 3b3d
00000080: 295f ac3d 1634 0fbe 7b23 5fbb 3d55 d93c
00000090: 2b01 853d 61e8 0e3d 7756 883d e944 89bd
000000a0: 2d0f 0abd 0c67 16be 7a35 0dbe 29a6 ae3d
000000b0: e5b1 9e3d bad7 a83c 3d51 7ebd 7c28 e43d
000000c0: 5c1e 19bc f771 c13b a5dc 91bd 80e8 2d3d
000000d0: dc26 efbd 938b cbbd e268 b53c db97 c2bd
000000e0: 40a4 613c 53bf 3c3d 5262 653c 1b00 c83d
000000f0: cfc9 9e3d 87f7 16be af28 0bbe 9139 f23c
00000100: 62f1 ffbd 4ef6 693d 95a7 08bd 0281 de3c
00000110: 49ff dc3d 8616 0a3e dde8 d4bd ccab cc3d
00000120: cd82 9f3d 9f5c 64bd 00f0 43b9 8203 933d
00000130: e7dc 9abd f004 1dbc a443 0f3d 4c32 453d
00000140: 4f92 bdbd 75b2 dcbc 9289 debd 6050 a43d
00000150: 2ee2 8bbc 4bf7 98bd 91bf 1c3e e534 1a3e
00000160: 2669 cfbd 7c64 9abc 0087 083e 9ad9 63bd
00000170: b45d d2bc 78e6 b6bc cf51 3abd 14ec 4cbd
00000180: d4eb 873d 8649 e7bb 5c1a 753b 1c86 8a3d
00000190: 32a0 a53d 4c58 f83d 7a6b 333d 381d ac3d
000001a0: a81a d6bd 84e1 fe3d a0c8 f03d 1c00 e6bd
000001b0: 8b37 82bd 1b4f 20bd ba8d debd 5c2c 0c3e
000001c0: dbd4 bdbd cb09 c9bc 30d5 0abd b4ad ecbc
000001d0: 74c4 1dbd 5c33 94bd 5c36 2a3d 5528 703d
000001e0: 1424 74bd 4c1d d13d 480b 56bd fed5 c23d
000001f0: b002 173d 68be be3d 745c 2b3d 1b4d 28bc
00000200: 2b8d 103e a32a b8bd b413 57bd 14a5 073d
00000210: 0848 f73d 34d7 a9bd 1d12 203d 90fd 41bd
00000220: e23a 8a3d dc40 e5bc 3e3e 8e3d 9cb5 aabc
00000230: 1868 b1bc ec37 5b3d bad9 45bd 08d3 e13c
00000240: 00bb e33c d0ef 3a3c f5a4 eabd fc91 3dbd
00000250: bad6 863d 6835 b93d 903a 8a3c 1c0c 9ebd
00000260: d77a 9fbd 7c53 213d f864 abbd 0088 39ba
00000270: bc25 2ebd a4ea a5bd e8e2 f73c 2023 e1bd
00000280: f46c ea3d c8c7 1abc 28e1 77bd 30c4 a6bc
00000290: 4025 e73c 20d0 013d 86eb 28bd 51a9 dbbd
000002a0: e0fa 51bb 87b2 bdbd 4c68 553d c039 ef3a
000002b0: 20e5 d3bb bbe6 eebd ac1f 503d fa2d 65bd
000002c0: 27d9 dabd 9ad3 9abd 1035 bbbc e441 b4bc
000002d0: 3c3b ee3d 94f2 dd3d 062f 67bd 800a 483c
000002e0: 8004 a1bd 986f ce3c 2049 b23c c7c2 debd
000002f0: 3749 71bd 4c04 99bc 08e1 2a3d 86df 8ebd
00000300: 2c43 293d 60c6 16bd cd2e dcbd e81c 64bd
00000310: 2008 57bb f038 c93c c463 dcbc 5a5f 25bd
00000320: c462 5f3d 3ca4 163d fcb1 433d 2e85 71bd
00000330: f953 2c3d ba06 7fbd 96f4 09bc c0f7 2b3c
00000340: 303c e43c 12a0 b8bd f2b7 3c3d 7e43 033c
00000350: 4d7e 9fbd 4060 ab3c 114a b1bb 0ec4 e2bc
00000360: 2d31 a53d a0a7 1a3d e405 5bbd 8eb3 9c3d
00000370: 2273 0b3e 3cda 37bd 1689 9ebd 5c8d dbbc
00000380: e4a7 073e 7346 dd3d a0b7 a13d b40e a23d
00000390: 08b4 b43d bb89 ab3c 1e14 ccbd bc7a 28bd
000003a0: 343b 0ebd 8e99 ef3c 264d 46bd b5f2 db3c
000003b0: 5bdc 20bd f78d 993d 4e5e 223d c9d3 9ebc
000003c0: 6c25 debc 2321 91bd cc3f aa3d 681d 083e
000003d0: cc1c 97bc e606 96bd 8497 5bbd 5989 d1bd
000003e0: ca6a b5bd c68b bb3d 5bfd 44bd 6c58 613d
000003f0: c37b 0c3c c707 463d 70ea f63d 29bd ebbd
-0.0014187052 -0.050007503 0.04614333 -0.09098322 -0.0131657105 -0.062940255 0.011827752 -0.119152546
-0.010999598 0.08982103 0.08411511 0.019752536 0.102542475 0.037495054 -0.11819431 -0.07989039
0.04916738 -0.096723676 -0.023554262 -0.045005124 -0.03939884 -0.04981564 0.041813906 0.015181131
0.0833581 -0.039724313 -0.09373533 -0.07030706 0.028598383 0.061139006 -0.072560705 0.04568186
0.08416588 -0.13984713 -0.0034048248 0.026529903 0.064943634 0.034889583 0.06657117 -0.06702597
-0.03370588 -0.14687747 -0.13789931 0.08527786 0.077487744 0.020610679 -0.062089194 0.11140534
-0.009345617 0.0059034782 -0.07122163 0.042458057 -0.11677334 -0.09938731 0.022144739 -0.095016204
0.01377207 0.0460809 0.014000492 0.09765645 0.07753336 -0.14742862 -0.13589738 0.029568465
-0.12497212 0.05711966 -0.033362944 0.027161125 0.10790879 0.13485155 -0.10395978 0.09993705
0.0778862 -0.055752393 -0.00018686056 0.071784034 -0.07561665 -0.009583697 0.034976617 0.04814367
-0.09256422 -0.026940564 -0.10866083 0.08023143 -0.017075624 -0.074690424 0.15307452 0.1505924
-0.10127477 -0.018846743 0.13332748 -0.055627443 -0.025679447 -0.022326693 -0.045488175 -0.05002983
0.066367775 -0.007058325 0.0037399745 0.067638606 0.080871955 0.12126216 0.04380367 0.084040105
-0.10454303 0.124453574 0.11757016 -0.112304896 -0.0635825 -0.03913794 -0.10866876 0.13688797
-0.092691146 -0.024540802 -0.033894718 -0.028891422 -0.03851743 -0.072363585 0.041555747 0.058632214
-0.05960472 0.10210666 -0.052256852 0.09513472 0.036867797 0.09313661 0.041836217 -0.01027229
0.14116351 -0.08992507 -0.052509025 0.033116415 0.12074286 -0.08293 0.039079774 -0.047360957
0.06749512 -0.027985029 0.069454655 -0.020838551 -0.021656081 0.053520128 -0.048303343 0.027566448
0.02779913 0.011409715 -0.11457244 -0.0462818 0.065839246 0.090433896 0.016873628 -0.077171534
-0.07787102 0.039386258 -0.08368868 -0.00070774555 -0.042516455 -0.08101395 0.030259565 -0.10993028
0.114465624 -0.009447046 -0.06051746 -0.020357221 0.028216004 0.031692624 -0.041240238 -0.10725654
-0.0032040402 -0.09262567 0.05210142 0.0018251464 -0.006466523 -0.11665102 0.050811455 -0.05595205
-0.1068595 -0.07559891 -0.02285245 -0.022004075 0.11632392 0.10837284 -0.05644133 0.012209535
-0.078621864 0.025199696 0.021763384 -0.108769946 -0.058907714 -0.018678807 0.041718513 -0.069762275
0.041323826 -0.03681028 -0.10751114 -0.05569163 -0.003281124 0.024563283 -0.02690304 -0.040374137
0.05453755 0.03677772 0.04777716 -0.0589649 0.04207227 -0.062262274 -0.00842013 0.01049608
0.02786073 -0.09014906 0.04607386 0.008011697 -0.07787762 0.020919919 -0.0054104407 -0.027681377
0.0806602 0.037757516 -0.053472415 0.07651435 0.13618138 -0.04488586 -0.07740991 -0.026800804
0.13247639 0.10804453 0.07896352 0.07912961 0.08823401 0.020939698 -0.099647745 -0.041132674
-0.03472443 0.029248025 -0.04841342 0.02684913 -0.039272647 0.07497781 0.039640717 -0.019388096
-0.027117454 -0.070863985 0.083129495 0.13292468 -0.018446349 -0.073255345 -0.053611293 -0.10231275
-0.08858259 0.09157519 -0.04809318 0.055015966 0.008574429 0.04834726 0.12056434 -0.11510689

fc1.bias f4 [64]
00000000: 535e 9e3d 8fba 93bc 4297 8dbd 483c b83c
00000010: 1764 8f3d b86d 20bd 7345 41bc e0c7 463d
00000020: e81a 07bd 0ea8 23bc 8b27 97bd 3c81 2d3d
00000030: 73bb 6fbd 98c0 b83d e871 3abd 2a90 74bd
00000040: e137 a33c 3978 813b dacb 58bd 49b9 5f3d
00000050: 94a0 5dbd 5a92 b83d b4dd 6a3d 7103 783d
00000060: 15af 973c dbe3 723d a745 173e 01cc 053e
00000070: 2eff ef3b 5c79 093e af67 e1bd b97b 1fbd
00000080: 98f9 913d 00bd e8bc 7884 c2b8 53b9 6b3d
00000090: 3a39 373d e6bf 483d 117f 393c 6d34 f33d
000000a0: d710 d5bd 3ac8 9dbd 7da9 703c 9cf7 77bd
000000b0: 02c3 f23d d19a 963d e561 bb3c 0134 d1bd
000000c0: c495 63bd 5b83 033e d4f9 c8bd 98d6 853d
000000d0: b4f6 663b ddee 123e 6a2c e03c 64b5 4abd
000000e0: a29c 203d 9c08 fe3c 7e92 c63d d77c 60ba
000000f0: ecde 183c 9c03 cbbd ef6b 153e 6705 a53d
0.07732835 -0.018033294 -0.06913616 0.022489682 0.070015125 -0.039167136 -0.011796343 0.04853046
-0.032984644 -0.009988798 -0.07380589 0.042359576 -0.058528375 0.09021109 -0.045518786 -0.059707798
0.019924106 0.0039510992 -0.052928783 0.05462006 -0.054108217 0.09012289 0.05734034 0.060550157
0.018516103 0.05929933 0.14772664 0.13066103 0.007324121 0.13425201 -0.11006104 -0.03893635
0.07127684 -0.028410435 -9.275315e-05 0.057549786 0.04473231 0.049011134 0.011321799 0.11875234
-0.104036026 -0.07704206 0.014688847 -0.060538873 0.11853601 0.07353748 0.022873828 -0.10214997
-0.05556275 0.12843077 -0.09813276 0.06535071 0.0035242261 0.14348932 0.027364928 -0.049489394
0.039211877 0.031009965 0.0969591 -0.00085635245 0.0093304925 -0.09912798 0.14591955 0.08057671

fc2.weight f4 [4, 64]
00000000: 1665 09bd 16e4 603d b45d 8c3d 6acf ffbd
00000010: ed4e 133e cc75 4fbd a7ca 95bd 6fce b83d
00000020: 6f83 a6bd 09dd e8bd d091 f73d 7a8d bbbd
00000030: a6e0 e43d a167 01be eec7 ccbc 04ef 65bd
00000040: d8ae ca3c 2c68 14be 08f6 6abd a298 0fbe
00000050: f5ab b0bd 00ab ffbc 6bbb d4bd f8e0 963d
00000060: c180 2bbe 2674 b4bd dc02 13bd 6623 ec3d
00000070: 220b 033e 9f67 b0bb 244f bdba 3e1d 293c
00000080: 5b00 ce3c 00ac 503d b961 ce3c e426 e63d
00000090: faac e63d 9e68 b8bd bf12 edbd 9201 063a
000000a0: c81d 0f3d dc81 99bd f565 e33c 3b3a a0bd
000000b0: 1764 8fbd b55b 29bd 307d b7bd badd 0cbe
000000c0: f68e 833d 73bc 12bc 3ce5 c03d bc57 323d
000000d0: 50ac 903d 8f3a 4d3d d0d7 d5bd 3b5c b1bd
000000e0: 70cc 86bc 8780 983d 1bc8 863d 47be 5bbd
000000f0: d3b3 0ebd 697a 2d3d 4e93 1e3e 6c41 83bd
00000100: 06b5 e5bd 4461 103d e8d0 c9bd 8444 cdbd
00000110: 4371 93bc 4612 4cbd 234f dfbd 22fa afbd
00000120: ba9c 943a 673e 043e d944 a13d f6d1 16be
00000130: e0ce 1dbd 9dd0 e43d e1cc 573d 0a9a 1ebe
00000140: e599 1d3e 3363 f53b af69 90bd e777 173e
00000150: df99 f0bd 54fe bebd 3a25 d0bc 4549 023e
00000160: 6f09 cf3d 950c c6bd f07f ec3d 741c e7bd
00000170: bb7c 33be 13da 073e 7c28 9a3d f772 843c
00000180: e32a 92bd 5302 e13d e136 573d 800a 37bd
00000190: 26e6 01bd a9cc ce3d b20b 023e d6e0 19be
000001a0: 7d05 94bc be42 f2bd 6f8e bfbd 8e48 243e
000001b0: 3a3c ab3c e815 043e 2bb0 013e 4117 9b3d
000001c0: afcb 563d 2059 dabd acf0 e5bd 19fa 09be
000001d0: c007 f43b 4e3b 35bd eca9 a93d 0759 03bd
000001e0: 0102 23be 08a2 133c f66c 413d 9e2c 29be
000001f0: 462b a83d bde3 ebbd 477a 9b3d 1734 4cbd
00000200: 3e66 17be 31f1 34be 6081 7dbd d5dc cc3c
00000210: 5b49 033b d395 7bbd ee9d d4bd 2e6f 883d
00000220: 2604 773d c319 efbd b868 d0b9 48db 583c
00000230: d4c6 e6bc 1e08 053d 9bac 803d 230a cfbd
00000240: 1ecf 23bd f5ca d4bb 9c9b 07be ef18 c7bc
00000250: e044 bc3d 07bf 37bd 3d5a d8bc 37cb e8bb
00000260: 8280 1fbe ebd6 2bbe 6ee6 a1bd a6fb 603d
00000270: aaad c9bd a3ae 0fbe c96b c3bb cccb b7bc
00000280: e292 a0bd 8b38 23bd 612c 22be 174a 353d
00000290: 955b 33bd 2136 b1bd 5224 a43d 5ae8 8dbd
000002a0: 12ce cb3d 230e 1cba 4964 9f3d cd04 b4bd
000002b0: af3b d63d 154b bd3d 113f 03be 9014 ad3d
000002c0: 153c 0abe 5413 aa3c dcbb 80bd 0a1f 16be
000002d0: a6cb c4bc 9bd6 14be 17a8 20be 95de d33d
000002e0: 5bd9 64bd 08d2 45bd 9518 0bbd 02c7 623d
000002f0: 011d 4a3c 9abc 72bd 0792 2ebd 72b9 753d
00000300: cdc6 d73d f29a 643d 68a0 2abd 1f39 993c
00000310: 2a74 79bd 4c13 b5bb d8d9 883d b239 273d
00000320: 73d7 bbbd 59e2 fdbc 044a 03bd 1f54 f23d
00000330: bf96 63bd 54bd a23d c5df 84bd 74eb e73c
00000340: c222 00be 44b5 2e3d 6149 493d 16c6 06be
00000350: 6e4b cf3d 764d 3a3d d1da 33be 5ef1 70bc
00000360: e6b6 6b3d 49a8 1a3d d500 3abe 3cc9 1c3b
00000370: 261c 2b3d bff7 7dbd 3e3a 0ebd f8b0 c43d
00000380: b43e 123e 8b1b 13be 1b3e 1dbe 2fed c13d
00000390: a252 3e3d 5808 10be 4c08 29bd 346d e8bc
000003a0: ba35 933c 7134 0dbe e476 a73d 0a42 1cbe
000003b0: 8d7e 25be abe3 babd 02ab 093e e5e2 793b
000003c0: 7c18 56bd 1fe7 1cbe dab3 7abd b381 f53c
000003d0: a3b9 0fbe b4de 5bbc fcc4 8a3d 3c4c e1bd
000003e0: 6104 8dbd 44ff 9c3d ce60 f6bd 9cf1 bb3d
000003f0: cf6a 92bd 5968 3e3c 4ba4 38bd 775a ccbd
-0.03354367 0.05490502 0.0685381 -0.12490733 0.14385577 -0.05064945 -0.073140435 0.09023749
-0.08130538 -0.11370284 0.120883584 -0.09157844 0.11175661 -0.12637188 -0.024997678 -0.056136146
0.024741575 -0.14492863 -0.05736354 -0.14023069 -0.08626548 -0.031209469 -0.1038731 0.07367128
-0.16748334 -0.08811216 -0.0358914 0.11530189 0.12797216 -0.0053834463 -0.0014443141 0.010321913
0.025146654 0.050945282 0.025193082 0.112378865 0.112634614 -0.09004329 -0.11575841 0.00051119283
0.03494051 -0.07495472 0.027758578 -0.078236066 -0.070015125 -0.041347224 -0.089594245 -0.13756457
0.06423752 -0.008956063 0.09418723 0.0435407 0.07064116 0.050104674 -0.104415536 -0.0866017
-0.016454905 0.0744639 0.06581136 -0.05364826 -0.034839462 0.042353068 0.1548588 -0.064089626
-0.11216168 0.03524901 -0.09854299 -0.10022834 -0.017998343 -0.049822114 -0.10903766 -0.08592631
0.0011338212 0.1291443 0.0787446 -0.14728531 -0.03852737 0.11172602 0.052685622 -0.15488449
0.15390737 0.007488632 -0.070514075 0.14791833 -0.117480986 -0.09325853 -0.025408376 0.12723263
0.10109221 -0.096703686 0.1154784 -0.11284724 -0.1752805 0.13266782 0.07527253 0.0161681
-0.07137086 0.109867714 0.05254257 -0.044687748 -0.031713627 0.100976296 0.12699774 -0.15027174
-0.018069023 -0.11829136 -0.09353339 0.16043302 0.020902742 0.12898982 0.12664859 0.07572795
0.05244034 -0.106615305 -0.11227545 -0.13474311 0.007447213 -0.04424601 0.08284363 -0.032067325
-0.15918733 0.009010799 0.047223054 -0.16520926 0.08211379 -0.11518047 0.07591682 -0.049854364
-0.14785096 -0.17670132 -0.06189096 0.025007645 0.0020032737 -0.06142218 -0.10381685 0.06661831
0.06030669 -0.116748355 -0.00039750873 0.0132358745 -0.02817098 0.032478444 0.06282922 -0.10109355
-0.039992444 -0.006493921 -0.13242954 -0.024303881 0.09192824 -0.044859912 -0.026410216 -0.007104303
-0.15576366 -0.16781203 -0.07905279 0.05492749 -0.09847577 -0.14031462 -0.0059637767 -0.022436045
-0.07840516 -0.039848845 -0.15837242 0.04426011 -0.04378851 -0.086529024 0.0801474 -0.06929083
0.09951414 -0.0005953034 0.077828 -0.08789978 0.104606025 0.092428364 -0.12817027 0.084511876
-0.13499482 0.02076117 -0.06285831 -0.14660278 -0.024022888 -0.1453499 -0.15689121 0.103451885
-0.05587135 -0.048296005 -0.03395899 0.05536557 0.012336017 -0.059261896 -0.04261973 0.059991308
0.10535965 0.05581183 -0.04165688 0.018703995 -0.0609018 -0.005525982 0.066821754 0.040826507
-0.09171953 -0.03099172 -0.03205301 0.11832451 -0.055563685 0.07946268 -0.06487993 0.028310515
-0.12513259 0.042653337 0.049142245 -0.13161501 0.10121809 0.04548403 -0.1756394 -0.014705984
0.057547472 0.037758145 -0.1816438 0.0023923656 0.04177489 -0.062003847 -0.034723513 0.096040666
0.14281732 -0.14365976 -0.15355723 0.09469067 0.046465524 -0.14065683 -0.04126768 -0.028372385
0.017969955 -0.13789536 0.081769735 -0.15259567 -0.16161557 -0.091254555 0.1344414 0.0038129624
-0.052269444 -0.1532254 -0.061206676 0.029969072 -0.14035659 -0.013419796 0.06775853 -0.11000869
-0.06885601 0.076658756 -0.12030183 0.09176943 -0.07149278 0.011621558 -0.045078557 -0.09978192

fc2.bias f4 [4]
00000000: c15f 60bb 2894 013d 8861 db3d a28e 903d
-0.0034236761 0.031635433 0.10711962 0.07058455
