models/emonet/emonet_model.pt (torch, 106128 bytes, 5 tensors)

embedding.weight f4 [93, 100]
000000 e1 43 2b bf 45 b1 42 3f b4 b8 6d 3e b2 b4 e5 be
       -0.6690045 0.7605174 0.2321499 -0.44864422
000010 cc a9 c6 bf 63 f2 0a 3e b5 58 54 bf 8e 84 89 bf
       -1.5520568 0.13569026 -0.82947856 -1.0743577
000020 f9 c9 05 3f 1d 08 16 3e bd b1 24 3d e9 da 01 40
       0.5226131 0.14651532 0.040208567 2.0289862
000030 d8 e7 53 bf 79 b4 0a c0 16 38 20 bf df b8 cf be
       -0.8277564 -2.1672652 -0.6258558 -0.40570733
000040 d2 15 17 3f d9 d9 95 bf 9b 13 95 bf ae 9d 24 3f
       0.5901767 -1.1707107 -1.1646608 0.643031
000050 8b bb 4c 3f a7 76 4c 3e 92 81 0d be 8c fe 73 3e
       0.7997367 0.19967137 -0.13818958 0.2382757
000060 db 8f 5c 3f 37 29 28 bf 63 3c 34 bf bc 8e 89 be
       0.86157006 -0.6568789 -0.7040464 -0.2686671
000070 09 0a 93 be 71 98 1d bf 2f 54 84 bf 90 1d 90 3e
       -0.28718594 -0.6156073 -1.0338191 0.28147554
000080 fc f8 35 3f aa 5c 54 3e d2 1d 13 3e a9 2e 0a 3e
       0.71083045 0.20738474 0.14366844 0.13494362
000090 c8 fa eb bd 4f 71 ee bf 3f 9c e4 3e 41 f4 d0 be
       -0.11522442 -1.8628329 0.44650456 -0.4081135
0000a0 f2 9e 47 bf 2c 31 aa be b5 71 90 3f d4 e3 71 bf
       -0.77976906 -0.3324064 1.1284701 -0.94488263
0000b0 0a 84 7a bf 4f 07 2b bf 86 f6 cd 3e 0a 45 a2 bf
       -0.97857726 -0.6680803 0.40227145 -1.2677319
0000c0 61 28 39 3e 7b 4a b2 3f 2b 52 84 3f 56 d2 07 be
       0.1808181 1.392898 1.0337576 -0.1326383
0000d0 9a c9 81 3e 62 95 f2 3e 3d c2 8e bf 20 4a 4b bf
       0.25349122 0.47379595 -1.1153027 -0.7940998
0000e0 60 22 41 3e 55 38 71 bf a6 b1 e2 be fb 78 88 bf
       0.1886077 -0.9422658 -0.4427616 -1.066192
0000f0 39 4d 25 3f 49 49 32 bf a6 18 45 3e 19 4d 1e bf
       0.6457096 -0.69643074 0.19247684 -0.6183639
000100 32 68 fb 3f bf e4 5d bf d8 7d 11 3d 27 99 62 be
       1.9641173 -0.86677164 0.035520405 -0.22128735
000110 4c 95 e9 bd 89 59 76 3e 01 49 96 bf 01 56 2f bf
       -0.11405429 0.24057592 -1.1741029 -0.68490607
000120 e8 53 c1 3e 60 71 02 40 6f 38 77 bf ec 47 d7 3d
       0.37759328 2.0381699 -0.96570486 0.10511765
000130 bd 10 a3 be 41 de 84 bf 9a db c9 bf 00 0f 03 c0
       -0.31848708 -1.0380327 -1.5770142 -2.0477905
000140 49 45 97 3f fe 47 4e be ba b6 41 bf 79 81 48 bf
       1.1818019 -0.2014465 -0.75669444 -0.7832256
000150 c2 6d 00 3f 12 78 2d 3e 39 96 86 3f d7 4c d0 3f
       0.5016748 0.16940334 1.0514594 1.627345
000160 f3 82 49 be a2 01 3c bf bd a9 c3 3e 5a df ce 3f
       -0.1967886 -0.7343999 0.38215438 1.6161911
000170 80 b4 74 bf 75 73 a4 bf 06 3a 39 be de b6 80 3e
       -0.9558792 -1.2847735 -0.1808854 0.25139517
000180 f4 7e 86 3d ab d6 81 3f 39 f4 03 3f 84 ec a2 bf
       0.06567183 1.0143636 0.5154453 -1.2728429
000190 1e dd 8f bf 01 95 32 3f 19 d3 b8 bf 1e 07 79 3f
       -1.1239355 0.6975861 -1.4439422 0.97276485
0001a0 90 ba c6 bd 92 9e 19 c0 73 39 33 bf 79 c7 a3 3f
       -0.09703553 -2.4003034 -0.70009536 1.2795249
0001b0 07 92 af 3f 80 12 15 bf a8 26 3f bf 00 e6 09 40
       1.3716439 -0.58231354 -0.7466836 2.154663
0001c0 0f f7 8e bf e1 1d df bf d4 91 72 3e ea 1e 05 c0
       -1.1169146 -1.7430993 0.23688442 -2.0800118
0001d0 fb f2 21 3e ff a1 05 c0 17 88 62 bf e5 47 b8 3f
       0.15815346 -2.0880125 -0.88488907 1.439694
0001e0 e3 e5 75 3f 5c 1a b3 3f 41 cf 8b c0 89 5d a5 bf
       0.96053904 1.3992419 -4.3690495 -1.291917
0001f0 1f ff cb bf df 68 73 bf f7 1c 04 c0 95 40 ff bf
       -1.5937232 -0.95081896 -2.0642679 -1.9941584
000200 a2 c2 1b 40 be 8c d7 3d 63 a5 09 40 e5 7d af bf
       2.4337544 0.10524891 2.1507194 -1.3710295
000210 d2 57 ea bf cc a3 b1 3f 94 27 af bf a7 dc 1f c0
       -1.8308051 1.3878112 -1.3683953 -2.4978426
000220 57 f3 cb bf 32 d2 99 bf 0e 87 8e bf 4d f1 86 bf
       -1.5933636 -1.2017272 -1.1134965 -1.0542389
000230 c6 2d 63 bf 3c 94 81 bf 7e 49 e2 3e 0c f2 98 bf
       -0.8874172 -1.0123363 0.44196695 -1.1948867
000240 6c 15 58 3f 96 f8 85 bf 9d 7d 5d be de 5f 07 bf
       0.8440769 -1.0466487 -0.21629949 -0.52880657
000250 8a cc 08 40 c3 24 4e bf 0b b0 45 c0 4a c5 2d c0
       2.137484 -0.80524844 -3.0888698 -2.7151666
000260 7c b4 d7 bf ad 50 00 c0 3b e8 80 bf 44 e8 28 3f
       -1.6851954 -2.004924 -1.0070871 0.6597941
000270 f0 ed b4 bf bf ac 3b bf 47 46 44 3f 23 d5 44 c0
       -1.4135113 -0.73310465 0.76669735 -3.0755088
000280 3c 6e b2 bf fe a4 2f 3f 63 60 df bd da 72 de 3f
       -1.3939891 0.68611133 -0.10907056 1.73788
000290 06 2a 91 bf d3 78 c5 3f bd 9e 2c 40 4d 9b ad be
       -1.134095 1.5427498 2.6971886 -0.33907548
0002a0 07 59 41 bf a5 0e 04 c0 89 e2 13 bf 71 ae b0 3f
       -0.7552647 -2.0633938 -0.5776754 1.3803235
0002b0 b2 d2 56 3f 07 ff 05 40 44 10 80 bf 19 e4 76 be
       0.83915246 2.0936906 -1.0004964 -0.2411045
0002c0 36 a0 cf 3f 70 01 d4 bf f6 f7 de 3f 44 ad c5 bf
       1.6220767 -1.6562939 1.7419422 -1.5443501
0002d0 bc e0 69 3f 47 ff 1d c0 54 66 c3 3f 71 ca 9f 3e
       0.9135854 -2.468706 1.5265603 0.31209138
0002e0 c3 35 53 3f cf 55 5b be 99 56 ab bf 9d 3b 02 c0
       0.8250391 -0.21419452 -1.3385803 -2.0348885
0002f0 e2 49 a1 be 78 5e 36 40 44 d8 29 40 bb a0 e9 bf
       -0.3150168 2.849516 2.6538248 -1.8252176
000300 f7 33 2f bf fc c0 ce 3f 9f 6f 06 c0 e3 dc ca 3f
       -0.6843867 1.6152644 -2.1005628 1.5848659
000310 f7 8d 78 3f 6e d1 84 bf e0 c4 03 3d 7e 2b bf 3f
       0.9709162 -1.0376413 0.032170177 1.4935148
000320 50 12 7c be 81 af 84 bf e1 42 c4 be c2 ee d6 3e
       -0.2461636 -1.036606 -0.38332275 0.41979033
000330 15 89 78 bf 71 c4 81 bf ec 47 38 be c2 19 18 40
       -0.9708417 -1.0138074 -0.17996186 2.3765721
000340 7b 5b 13 3d 13 a7 51 3f 6f 21 3f 3d fb 0d 75 3f
       0.035975914 0.8189556 0.046662744 0.9572446
000350 2b 70 c9 bf 4d dc 44 3f 35 7a 86 3f 03 38 a0 bf
       -1.5737356 0.7689865 1.0506045 -1.2517093
000360 31 ce b2 3f 8b 80 df bf 7d 64 06 bf 1c 93 d4 3e
       1.3969175 -1.7461103 -0.5249708 0.41518486
000370 df 64 cb 3f 2b e3 fb 3e 24 24 58 bf 3c e6 dd bf
       1.5890158 0.49196753 -0.84430146 -1.7335887
000380 dc fa fd bf 22 37 90 bf 73 86 fe bf 1d 94 cb bf
       -1.9842181 -1.1266825 -1.9884781 -1.5904576
000390 e8 47 96 3f 29 16 ba bf c8 c7 9a 3d d8 ea 02 3e
       1.1740694 -1.4538013 0.075576365 0.12784898
0003a0 2e 90 d4 bf 25 2a 1e 40 d6 3a fc be bd 67 d3 bf
       -1.66065 2.4713223 -0.49263638 -1.6516033
0003b0 cc 94 e8 bf e8 ef 07 c0 19 63 1c c0 7e 76 ac bf
       -1.8170409 -2.1240177 -2.4435484 -1.3473661
0003c0 7d 2b e0 bf 50 98 94 3f f5 19 e8 3e c2 77 e9 bf
       -1.7513272 1.1608982 0.45332304 -1.8239672
0003d0 f2 a4 53 bf 3f 2a 7f bf f9 2f 87 bf 41 25 78 bf
       -0.8267356 -0.9967384 -1.0561515 -0.96931845
0003e0 c3 8d 91 3f 1a 2c d1 bf 83 70 1c 3f b8 3a 3e c0
       1.1371387 -1.6341584 0.6110918 -2.972334
0003f0 d7 d6 06 c0 c9 e9 18 3e 50 b9 d0 bf 99 f5 a0 bf
       -2.1068628 0.14932932 -1.6306553 -1.257495

fc1.weight f4 [128, 100]
000000 1c 1a b5 be 1c 17 ef 3c 28 19 08 3f 8f 03 38 be
       -0.35371482 0.029185824 0.53163385 -0.17970107
000010 dd d9 a4 bd 41 2c 2d 3f 37 45 a3 bd 97 5f 46 bd
       -0.080493666 0.6764565 -0.07972186 -0.048431005
000020 20 b1 27 bc 42 80 98 be 90 e9 09 3e 25 ee c8 3b
       -0.010235101 -0.29785353 0.13468003 0.0061319047
000030 fe 29 15 3e ee 37 13 be a8 cf 25 3e bd 69 19 3e
       0.145668 -0.14376804 0.16192496 0.14981742
000040 2e e9 7b be b7 e3 d2 3d 74 c9 bb bd ff f4 90 bd
       -0.2460067 0.102973394 -0.091692835 -0.07077979
000050 a0 b2 0e be 64 d5 99 3e 2e b7 a5 3d 9b e8 82 be
       -0.13935328 0.30045617 0.080915794 -0.2556809
000060 70 29 36 3e e5 e1 62 3d d2 7c d4 bd 01 d5 c7 be
       0.17789245 0.05539121 -0.1037537 -0.39029697
000070 aa 7b 60 3e 53 b7 87 be 44 87 7c bd 07 71 9e be
       0.21922174 -0.26507053 -0.061652437 -0.30945608
000080 5e 03 8b 3d a0 e2 04 3f 41 93 90 3e 37 51 0a 3d
       0.067877516 0.519083 0.28237346 0.03376886
000090 7e 1e e6 3d 14 7e b1 bd b4 e1 3d 3e 27 69 cf 3e
       0.11236285 -0.086666256 0.1854313 0.40509912
0000a0 b1 cd 49 3e 7b 9c ad 3e 86 44 7f 3e 51 59 46 bd
       0.19707371 0.33908448 0.24928483 -0.048425023
0000b0 7c fe 82 3d 9c 4f 14 be 12 5b 63 3e 43 3e 08 be
       0.06396195 -0.14483494 0.2220271 -0.13305001
0000c0 28 b4 30 bf a7 8b 05 3e dd ba 35 bd b6 f5 15 3e
       -0.69024897 0.13041554 -0.04436766 0.14644513
0000d0 3c be c1 3e 92 2e ba 3e f7 ce 24 3e a4 fd 16 be
       0.3784045 0.36363655 0.16094576 -0.14745194
0000e0 a2 4c 26 3f b6 a8 d1 bd 83 04 ba be 70 59 01 be
       0.6496068 -0.10237257 -0.36331567 -0.12631774
0000f0 28 d9 43 3e 5b d1 51 3e 93 14 2c 3d aa 81 ac be
       0.19125807 0.20490019 0.04201181 -0.33692676
000100 b5 6a 4b 3d 08 8d 59 be 34 60 8d bf fb bb ee 3e
       0.04966231 -0.21245205 -1.1044984 0.46627793
000110 b4 5b da bc 06 91 1b bf 85 bf 35 3d 7b c9 84 be
       -0.026655056 -0.60768163 0.0443721 -0.25934967
000120 a7 c1 1d 3d 3e 28 67 3e 4e c4 80 bd 7d f2 f7 be
       0.03851476 0.22573945 -0.06287442 -0.4842719
000130 e1 0e 5a be 6b 85 a5 bd 21 36 27 be 85 56 a9 bb
       -0.21294738 -0.08082088 -0.16329242 -0.0051677846
000140 1f d2 f9 bd 85 b8 5a 3e 81 56 4e bd 05 a2 ba 3d
       -0.121982805 0.21359451 -0.050375465 0.09112934
000150 a4 1c 5f 3d 9f 93 98 3e 65 d5 17 3e a2 50 20 bd
       0.054470673 0.29800126 0.14827497 -0.039139397
000160 5c 18 92 be c1 14 e4 3c fe 70 88 bb 5d 50 05 be
       -0.2853421 0.027841927 -0.0041638603 -0.13018937
000170 2a 5b f8 3d f2 c4 83 bc b9 87 d2 3e 14 19 97 bd
       0.12126763 -0.016085122 0.41119173 -0.0737783
000180 cf c0 3a 3f 88 76 37 3e 8f c0 89 3d e2 bd c6 bd
       0.7295045 0.1791631 0.06726181 -0.09704186
000190 cf b1 2e be 8c 65 92 3e 63 69 49 bf 3f c5 1e bd
       -0.17060016 0.285931 -0.7867643 -0.038762327
0001a0 70 eb d0 bc 0b 9b b4 be ee 3f 21 be 78 21 aa 3d
       -0.02550289 -0.35274538 -0.15747043 0.08307165
0001b0 df 2e da 3e 30 12 f8 3c 9f b1 6d 3f 9f 5e e8 3d
       0.42613885 0.03028211 0.92849153 0.113461725
0001c0 ea bf 04 3e b9 f3 0c be 2f f4 aa be f3 05 dc be
       0.12963834 -0.13764848 -0.33389422 -0.4297329
0001d0 53 0e 86 3c 10 d2 15 bd 13 56 fb bd 49 97 c6 3c
       0.016364252 -0.036577284 -0.12272277 0.02424206
0001e0 2f 7d c2 3d 41 d0 e1 be 69 83 00 bf cf 9f d8 be
       0.09496533 -0.44104198 -0.50200516 -0.42309424
0001f0 80 ab 59 bd 60 35 05 be 07 4a a8 3c 51 75 80 bd
       -0.05314207 -0.13008642 0.020543111 -0.06272376
000200 24 d9 45 3f 55 6c 86 bc 3b eb a9 be b2 63 7d be
       0.77284455 -0.016409079 -0.3318728 -0.24745062
000210 9a 66 25 3d 9b 04 17 bf 9e b8 b5 3e 13 96 6c 3f
       0.04038105 -0.589914 0.35492414 0.92416495
000220 c1 d3 6a 3f 17 8c 92 3c 93 d3 b4 be c5 41 aa be
       0.9172936 0.017889066 -0.35317668 -0.33253303
000230 a1 e5 2d be 13 d3 dc be ef b5 30 be c4 7f 75 be
       -0.16982128 -0.43129787 -0.17256902 -0.2397452
000240 ad d8 1e be ab cd 8b be 40 8c 45 be 84 00 21 be
       -0.15512343 -0.2730535 -0.19291782 -0.15722853
000250 2d fe b7 3e 2b e2 a4 3d 7a 10 1d 3e 6d 39 65 3e
       0.35936108 0.080509506 0.15338317 0.22385187
000260 d1 8d 04 3e 45 fe 4d 3e ea f3 7d be 25 96 21 be
       0.12944724 0.20116527 -0.24800077 -0.15779932
000270 39 a9 3e 3f 03 8c cf 3d 21 fa 8a 3e a3 b3 11 bd
       0.74476963 0.10134127 0.27143958 -0.035571706
000280 01 79 57 be 08 d9 cf 3d fa f0 47 3f 6a 38 c5 be
       -0.21042253 0.10148817 0.78102076 -0.38519603
000290 32 0e b1 bd 5f 5e 92 3d 40 5a 4d 3f 8e bc c2 be
       -0.08645286 0.07146906 0.80215836 -0.3803448
0002a0 42 dc 33 bf 4d 0e f5 3e 93 ed 9f bc 14 de f4 be
       -0.7025796 0.47862473 -0.019522464 -0.47825682
0002b0 7e 2d cb be d8 56 01 be d0 2c e5 bd 88 c5 9e bd
       -0.39683145 -0.12630785 -0.11190188 -0.0775252
0002c0 c6 f9 81 3d b4 cf 0d be 63 0f 59 3c 59 44 07 bd
       0.063464686 -0.13848764 0.013248297 -0.033024166
0002d0 62 d9 19 3e 5c 51 e3 be 12 20 dd 3d fc ab e6 bd
       0.15024331 -0.4439801 0.107971326 -0.11263272
0002e0 31 7f a4 be f7 d2 45 3f f6 e1 d8 3c 32 64 0e 3e
       -0.3212829 0.7727503 0.026474934 0.13905409
0002f0 c4 2f 21 bf 0a e5 bf bd 2c c5 c3 3e 8e 2e 9b 3a
       -0.6296351 -0.093698576 0.38236368 0.0011839436
000300 7f fc 25 3c 48 b0 d5 3d 66 a8 33 3e 5e bb 1b bf
       0.010131001 0.104340136 0.17544708 -0.60832775
000310 e1 0a 8b be 55 c9 d0 bd 1a f8 bc be b7 1e 3d bc
       -0.27156737 -0.10194651 -0.36908036 -0.0115429675
000320 4b 93 59 bc ab 26 77 3d c7 5d 71 bd 4a 98 a1 3c
       -0.013279746 0.06033961 -0.058927324 0.019725937
000330 cd a5 ce 3d 63 6e 8c bb 7c 23 bc 3d 37 f7 a4 bd
       0.10090218 -0.00428562 0.091864556 -0.08054965
000340 16 b4 46 bd 64 ad ff bb 3e bd 98 bd 06 a9 a7 3d
       -0.048511587 -0.007802652 -0.0745797 0.081865355
000350 6d d7 c2 3d 9f e6 2b bc 48 da 42 3a 80 88 20 3d
       0.095137455 -0.010491996 0.0007433039 0.039192677
000360 4b 8e a7 3d f6 06 9c bd 25 72 8e bd e5 00 78 bd
       0.08181437 -0.07618515 -0.06955365 -0.060547728
000370 51 06 33 bc 4a f8 4a 3a 0a a3 e3 3a 49 8c 30 bd
       -0.010926799 0.00077426864 0.0017367315 -0.043102536
000380 90 d7 ea bc b2 7e b5 bb 77 8b 94 bd c3 55 4f bb
       -0.028667241 -0.005538785 -0.07253163 -0.0031636811
000390 f0 d1 b9 3d 97 dd 39 3d 80 a4 3f bc 3c c0 8d bd
       0.090732455 0.04537734 -0.011696935 -0.069214314
0003a0 63 35 cf bd c5 ff 7f bd 5e 2b c5 3c 4b 47 ba bd
       -0.101176046 -0.06249978 0.02406853 -0.09095629
0003b0 49 dd 44 3d e9 6e ee bc 0f f5 74 bd 85 f8 cf 3d
       0.048062596 -0.02910562 -0.05980402 0.10154823
0003c0 b7 58 ab bd 84 b6 0b 3d b8 7b 1c 3d 7d 3b 28 bd
       -0.083665304 0.034109607 0.038203925 -0.041072357
0003d0 3d e6 cd 3c 85 60 1f 3d 5a e8 b3 bd e1 17 09 bc
       0.0251342 0.038910408 -0.08784552 -0.00836751
0003e0 8e fa 9c bd 38 af 9a bc 91 de 80 bd aa 6a 18 bd
       -0.07664977 -0.018882379 -0.06292451 -0.037211098
0003f0 b9 6a 1f 3d 55 fa cc bc f7 6a 9f bc 2b e8 bd bd
       0.038920138 -0.025021711 -0.019460184 -0.09272798

fc1.bias f4 [128]
000000 e5 3f fb 3d eb 0c 9a 3c cb dd 1e bd f9 29 4d bd
       0.12268046 0.018804988 -0.038785737 -0.050088856
000010 27 06 74 bd e0 4d ba bc 69 be 3e bd 20 56 9e bd
       -0.05957618 -0.022742212 -0.046568308 -0.07731271
000020 00 41 6b bc e3 2d 70 3d 9a 66 5a bd 89 c2 90 3d
       -0.014358759 0.05863751 -0.053320505 0.07068355
000030 80 10 4d 3c f8 08 ff 3d fc 0e ec 3c 13 ae 92 3d
       0.012516141 0.124528825 0.028815739 0.07162108
000040 f0 3d cd 3c 64 2c f1 3d 60 ab 64 3c ec 3a 8a bd
       0.025053948 0.11776045 0.013956875 -0.0674952
000050 8c 03 93 3b 27 d8 b5 bd 58 f4 15 bc 05 93 b5 3d
       0.004486507 -0.088791184 -0.009152494 0.088659324
000060 e1 11 09 3e f1 28 b4 3d b2 80 5e 3d 80 34 03 bc
       0.13385727 0.087968715 0.054321952 -0.008008122
000070 12 ee ad bd 52 df 26 3d 15 b9 74 3d 38 c7 f0 bc
       -0.08492674 0.04074032 0.05974682 -0.02939187
000080 52 65 4a 3d 8d e0 ce bd d2 9e 3d 3d 1a 52 a3 bd
       0.049413033 -0.101014234 0.04629404 -0.07974644
000090 be be 5d 3d b7 2b 54 3d a0 db cb bd 39 a8 e1 3d
       0.054136984 0.051799502 -0.099539995 0.11018414
0000a0 96 52 e4 3c 15 59 97 3d 12 26 f5 3d 8c 46 bc bc
       0.027871411 0.07390038 0.11970152 -0.022982858
0000b0 5a 68 a0 3d 20 3f c4 bb 65 c2 ad 3d 18 f0 69 bd
       0.078324035 -0.0059889704 0.084843434 -0.057113737
0000c0 d5 ba 89 bd b0 a5 b6 3c f4 a8 c0 3d 58 7a b4 bd
       -0.067250885 0.022295803 0.09407225 -0.08812398
0000d0 e8 88 4e 3c 30 a6 1d bd 29 06 c0 3c 0c 63 da 3c
       0.012605883 -0.038488567 0.023440437 0.026658557
0000e0 35 4a 02 3e 7f 43 b2 bd a6 e1 0b 3b 6e cc df bb
       0.1272362 -0.0870428 0.0021344214 -0.00682979
0000f0 fe 2d 3f 3d e4 0f 82 bd a5 48 77 bd 64 d6 3f 3d
       0.04667472 -0.06350687 -0.060372014 0.04683532
000100 98 9d ad bc ec 83 3e bb e0 d9 da bd da fc 99 bd
       -0.02119331 -0.002907033 -0.106860876 -0.07518931
000110 83 b3 9b 3d 61 09 e2 bd 6b d5 53 bd 4b 91 bd bd
       0.076025985 -0.11036945 -0.051717203 -0.09256228
000120 ea 14 b9 bd 4e e1 f6 bb d3 32 2a 3e 14 b5 65 3d
       -0.09037192 -0.0075341826 0.1662095 0.056080893
000130 00 35 bc bb 11 c3 95 3d ca 60 bb bd 85 ed 0d 3e
       -0.005743623 0.073125966 -0.091493204 0.13860138
000140 60 62 8f 3d 28 7d ae 3d c0 72 43 bd 17 b4 45 bd
       0.070011854 0.085199654 -0.047716856 -0.04826745
000150 aa d7 45 bd 44 f1 d8 3b 88 1f 95 3d 8d 83 89 3d
       -0.048301376 0.006620558 0.07281405 0.067145444
000160 49 c3 a2 3d 38 7a d4 3c 0e 79 9a 3a 28 4d 0f bc
       0.07947404 0.025937185 0.0011785345 -0.008746423
000170 3d 50 96 3d 51 78 bb 3d 7d 83 a9 bd 7a 5e a2 bd
       0.07339523 0.09153808 -0.082770325 -0.07928176
000180 cd 9c a5 3c 98 85 93 3d 2c d3 69 3c 36 e1 8f 3d
       0.02021637 0.07203215 0.014271539 0.070253775
000190 84 71 8a bd 6b 36 c5 bd 03 48 26 bc d3 d7 7a bc
       -0.06759933 -0.0962952 -0.010149005 -0.015310246
0001a0 a1 f2 4e bd c4 83 ad 3d de 48 84 bd 80 82 79 bc
       -0.050524358 0.08472398 -0.06459211 -0.0152288675
0001b0 93 e8 bc bd 5f 25 8c 3d 5a 2f 26 3d 04 72 c2 3a
       -0.092240475 0.068430655 0.0405725 0.0014835005
0001c0 50 28 88 3d f0 8b 4c 3c 7f 4b 80 3d 1a 39 71 bd
       0.06648314 0.012484536 0.062644 -0.058892347
0001d0 6e 72 70 3d cf 0c b8 bd 01 74 a4 3d 86 d8 34 3d
       0.05870288 -0.08986818 0.080299385 0.044151805
0001e0 f8 5c 9f bc cb b7 8f 3d d6 8f c9 3c d0 f1 22 3c
       -0.01945351 0.070174776 0.02460472 0.009945348
0001f0 6e 08 bc bd fd 8a a7 3d 9d f1 87 3d 5c b4 f9 3c
       -0.09181295 0.08180807 0.06637881 0.03048151

fc2.weight f4 [28, 128]
000000 ad 43 e2 bd 0b c5 3a be 85 91 27 3d c5 f0 dc bd
       -0.110480644 -0.18239228 0.040910263 -0.10788111
000010 05 05 1d bd 8f 07 96 3d 1a 96 e1 bc ec b4 8a bd
       -0.038334865 0.073256604 -0.027537394 -0.06772789
000020 c0 f6 19 bd 1f 75 34 3d fb 20 b0 3d 80 8f 58 3c
       -0.037588835 0.044057008 0.086000405 0.013217807
000030 0b 61 ae 3d 7c 2a ab bd 41 0a 76 bd 68 02 bf bc
       0.08514603 -0.083577126 -0.060068373 -0.023316577
000040 41 9d 3c be c7 3d 95 bd 80 4e 7b be 68 5a c9 bc
       -0.18419363 -0.07287174 -0.24541664 -0.024579242
000050 04 91 b9 bd bb 6c ae bd c2 34 07 3d fb a7 f5 3c
       -0.09060863 -0.085168324 0.0330093 0.029987326
000060 db ea b4 be 27 79 0e bd 88 0c a9 3c 50 91 32 bc
       -0.3533543 -0.03478351 0.020635858 -0.010898903
000070 40 20 81 3c b1 c7 9f 3d 15 89 68 3d 3f d9 ad bd
       0.015762448 0.0780176 0.056771357 -0.08488702
000080 20 98 c5 bb ba d9 d2 bc bd 9a ab bd 2b 3f 00 bd
       -0.0060300976 -0.025738586 -0.08379123 -0.03131024
000090 25 4a 0a bd b5 a6 c5 bd 44 24 89 3d 2b f3 00 be
       -0.033762116 -0.096509375 0.0669637 -0.12592761
0000a0 7a 0e 9c bd 56 66 90 bd f7 f7 df bc 68 20 a2 3c
       -0.07619949 -0.07050769 -0.027339919 0.019790843
0000b0 1e bd 9b bd f0 3a 44 bc a2 85 b9 bd 9b 7a 0d bb
       -0.076044306 -0.011976942 -0.090586916 -0.002158797
0000c0 ef 44 f1 bb b3 84 96 3d 0b 0a 0c bd 36 be 86 bd
       -0.007362954 0.07349529 -0.034189265 -0.065792486
0000d0 58 e4 6e 3c b3 80 3a bd 41 4c ea bd 26 95 f5 bc
       0.014580809 -0.045532893 -0.114403255 -0.029978346
0000e0 26 e6 e0 bc e0 83 05 3c 70 18 f0 bd 82 af d1 bd
       -0.027453493 0.008149117 -0.11723411 -0.102385536
0000f0 6d 22 56 3d f5 e7 a1 bd 1e ba b0 ba 64 63 21 be
       0.052278925 -0.079055704 -0.0013483202 -0.15760571
000100 b0 c0 cd bc 47 68 08 bd 83 fa 06 be 40 08 29 bb
       -0.025116295 -0.03330257 -0.131815 -0.002579227
000110 13 7e 71 bd 4f 1f 6e bd 73 5a ab be d2 d8 59 3d
       -0.058958124 -0.058135327 -0.33467445 0.05318529
000120 fc a3 28 bd 43 1f 2d 3d c6 04 09 be 7f 3a 42 bd
       -0.041172013 0.04226614 -0.13380727 -0.047419067
000130 1f 8c 9d bd 00 36 4b ba ec 0e 93 3c da 2f f5 bd
       -0.076927416 -0.0007751882 0.017951451 -0.119720176
000140 c7 ad 53 3d d9 13 17 bd b8 02 fb 3c a2 c4 7c 3d
       0.0516794 -0.036884163 0.030640945 0.06171096
000150 3e 03 62 bd 62 d5 38 be 0b 32 d6 bd d2 0a 0a be
       -0.055178873 -0.18050149 -0.10458764 -0.1348069
000160 af 68 02 3d 13 d6 af 3c 1c 98 5f bd a8 c9 df 3c
       0.031838115 0.021464383 -0.054588422 0.027317837
000170 20 d4 6c 3c 06 d4 71 3d 91 14 44 3c ff ee 6f bd
       0.014454871 0.059040092 0.011967794 -0.058577534
000180 12 f7 a8 be 8f 49 21 be 22 43 0f bf 2c 15 e7 bc
       -0.33001 -0.15750717 -0.5596181 -0.028208338
000190 59 a1 b0 3d 46 17 0e 3d f7 87 89 3b 8b e6 83 bd
       0.086245246 0.034690164 0.0041971165 -0.06440457
0001a0 4a 21 f0 bd de ec 22 bb c2 b8 f9 3b 30 74 16 bc
       -0.117250994 -0.0024860422 0.007620902 -0.009182975
0001b0 6d 09 e6 bd 7a 97 9b bc 1f 7c 7d bc 12 6a fb bd
       -0.112322666 -0.018993128 -0.015471487 -0.12276091
0001c0 d5 87 dc 3c 40 f7 9e 3b 8a 7b 42 3d 9b 61 a1 3d
       0.026920239 0.004851252 0.047481097 0.07879945
0001d0 25 82 92 3d 3d d0 83 bd aa 15 4c 3d 0c e4 12 be
       0.07153729 -0.06436203 0.049825348 -0.14344805
0001e0 82 82 2b 3d a0 6d 61 3c 62 d5 97 bd 40 77 bc bb
       0.04187251 0.013759047 -0.074137464 -0.0057515204
0001f0 83 9f 17 3c 8f ba 10 be bd 5f 26 bd d8 18 c3 3c
       0.009254339 -0.14133666 -0.040618647 0.023815557
000200 e4 7b 4b bd e4 6c 2e be 1c a1 b4 3c 1d 05 6d 3e
       -0.0496787 -0.17033726 0.02204948 0.23146482
000210 56 63 73 3d 59 28 82 3d c8 f9 c1 3b ab 2e 8d bd
       0.059420906 0.06355352 0.005919669 -0.06893667
000220 b2 8b 1c 3d 16 6b e6 bc 10 5b 52 bd 14 4d fd 3c
       0.03821916 -0.028127234 -0.051356375 0.030920543
000230 20 de d1 3c d1 bb 0d 3e f5 f6 98 3d 1b 2b 8a bd
       0.025618613 0.13841178 0.07468978 -0.06746503
000240 98 c6 25 3e 01 42 5e 3c 51 6d 7e be 4b d9 a4 3d
       0.16189039 0.013565541 -0.24846388 0.08049258
000250 7e 6b 40 3e 28 68 4c 3c da 8a f1 bc 71 95 e8 3c
       0.18791005 0.012476005 -0.029485155 0.028391572
000260 f1 4f 00 3c 50 26 a0 3b f8 fa 00 3c 6e a9 6f 3d
       0.0078315595 0.0048873797 0.007872336 0.05851119
000270 f1 50 93 3d 00 41 4a 3a 62 c9 82 bd 6f 92 a2 3d
       0.07193173 0.0007715374 -0.06386067 0.07938086
000280 48 06 a2 bc 84 05 d4 3b d2 ab 8d bd d4 47 f6 3c
       -0.019778386 0.006470384 -0.06917538 0.030063547
000290 d9 f4 64 3d 60 f0 74 3e a0 9e 4a bb f9 41 86 3d
       0.055897567 0.23919821 -0.0030917302 0.06555552
0002a0 6a b1 14 bd 3b bb 00 3e 93 94 ba 3d 10 1e 92 3b
       -0.036302008 0.12571423 0.091103695 0.00445915
0002b0 88 e3 8a bc 4f 61 9c bd c9 18 45 3e e9 d9 36 bc
       -0.016954198 -0.07635748 0.19247736 -0.011160352
0002c0 16 b4 d0 3e 03 b7 e7 bc 96 bf 23 3d 80 76 46 3c
       0.40762395 -0.028285509 0.039977632 0.012113214
0002d0 a4 40 8a bc 1a 3f 1c 3d 76 29 b8 3d 8e 2f 39 bd
       -0.016876526 0.038146116 0.08992283 -0.045211367
0002e0 78 2a 8e be 9a 81 71 3d cd 48 b7 3e b7 63 6e be
       -0.27766776 0.05896149 0.3579773 -0.23280226
0002f0 98 7f 1b bd 32 bd 52 bd 69 83 88 3d 7d c4 ac be
       -0.03796348 -0.051449962 0.066656895 -0.3374366
000300 36 c4 1b 3d 4e e0 3b 3e cc b6 6d 3e 88 4d c8 3c
       0.03802892 0.18347284 0.23214263 0.024451032
000310 b1 5c ef 3c 58 bf 9b 3e 6f 1b 08 bf 8b 24 8f 3d
       0.029219003 0.3041942 -0.5316686 0.06989392
000320 20 11 9c 3b a0 f1 ce bc 1e 91 df bd f7 e9 86 be
       0.0047627836 -0.0252617 -0.10916351 -0.26350376
000330 73 20 39 bd 60 3b cd bb 60 f6 e4 bc 18 1c 50 be
       -0.04519696 -0.0062631816 -0.027949512 -0.20323217
000340 8b 2f 21 39 fb dc 0a bd 43 6c 9e 3d e6 eb ac bd
       0.00015371868 -0.03390215 0.07735493 -0.084434316
000350 b8 79 29 3c 6a db fa 3a 45 3e 7b bd fe ff 51 3e
       0.010343961 0.0019138877 -0.06133868 0.2050781
000360 b8 3d 63 bd d3 7c af 3d c1 52 15 3d 57 64 90 3d
       -0.05547878 0.0856873 0.036455873 0.07050388
000370 38 cf 16 bf cb 9b 80 3d e5 f2 ea 3d 9a e2 6b bd
       -0.5890994 0.06279715 0.1147211 -0.05758915
000380 51 20 2e be 93 82 2e 3e 5c a7 6e 3e 94 d5 f7 bd
       -0.17004515 0.17041998 0.2330603 -0.12101284
000390 9c 6c 92 bc 12 78 64 bd 42 a3 89 3e fd 25 3d 3d
       -0.017874055 -0.05577857 0.26882368 0.046178807
0003a0 ac e0 be 3d 22 15 8e bd 3b ba 48 bc 68 38 3e bc
       0.093201965 -0.069376245 -0.012251432 -0.011610128
0003b0 42 4e 3f 3e b0 76 95 bd 37 11 90 bd 17 62 34 bc
       0.18682197 -0.072980285 -0.070345335 -0.011009715
0003c0 f1 a6 b5 3c e4 30 02 3d d0 bc 56 bc 90 9b 3a bc
       0.02217433 0.031784907 -0.01310654 -0.011389628
0003d0 dd 28 01 bd 48 4f 64 bc e5 d3 38 bd f0 dc ca bd
       -0.03153311 -0.013934918 -0.045123953 -0.09905422
0003e0 04 b8 88 bd 9e 90 5f 3d 20 a4 52 3d ee d8 30 3d
       -0.06675723 0.054581277 0.051426053 0.04317563
0003f0 9a 0b 59 ba 95 b2 49 3d 25 bb 06 bd 35 c6 0e bd
       -0.0008279622 0.049242575 -0.03289332 -0.034856994

fc2.bias f4 [28]
000000 15 24 07 be ec 26 cc bd 25 ab ae 3c d7 5e 88 3d
       -0.13197358 -0.09968361 0.021321842 0.06658714
000010 3d 89 0f bd 17 2e bb bd 5a 37 87 bc 63 13 cc bd
       -0.03504299 -0.0913965 -0.016505886 -0.09964635
000020 ea 87 11 be 27 91 99 bb ee 4c 88 bd fb 0d 43 bd
       -0.14212003 -0.004686493 -0.06655298 -0.047620755
000030 a6 e9 96 bd d2 b7 9f 3c 63 07 32 bd c5 de 6e 3d
       -0.07368784 0.019496832 -0.043464076 0.05831792
000040 af 93 91 bc 29 75 ed bd 2a 01 23 bc dd 6c d0 bb
       -0.017770616 -0.11594612 -0.009949008 -0.0063606338
000050 09 78 8d bd e7 11 8c 3d 7b 5a 11 3d 70 98 23 bd
       -0.069076605 0.06839352 0.03548668 -0.039940298
000060 10 6e b0 bd 8c 79 4d 3d 9e 8f 59 bd 2a 67 90 bd
       -0.08614743 0.050164744 -0.05311548 -0.07050927
